…
	train_val_ratio: 0.125
	split_seed: 0
	train_seed: 1
	repetition_iteration: 0
	spectrogram_type: MAGNITUDE_PHASE
[load] Attempting to load the cached input features
[load] Extraction hash: 25e1a65f
[load] Loaded cached spectrograms in 70.78 s
[load] Attempting to load the cached split data
[load] Split hash: 45d6eb30
[load] Loaded cached splits in 117.68 s
Model: "sequential"
_________________________________________________________________
 Layer (type)                Output Shape              Param #   
=================================================================
 conv2d (Conv2D)             (None, 149, 348, 64)      1088      
                                                                 
 max_pooling2d (MaxPooling2D  (None, 74, 174, 64)      0         
 )                                                               
                                                                 
 conv2d_1 (Conv2D)           (None, 73, 173, 128)      32896     
                                                                 
 max_pooling2d_1 (MaxPooling  (None, 36, 86, 128)      0         
 2D)                                                             
                                                                 
 conv2d_2 (Conv2D)           (None, 35, 85, 256)       131328    
                                                                 
 max_pooling2d_2 (MaxPooling  (None, 17, 42, 256)      0         
 2D)                                                             
                                                                 
 global_average_pooling2d (G  (None, 256)              0         
 lobalAveragePooling2D)                                          
                                                                 
 dense (Dense)               (None, 128)               32896     
                                                                 
 dense_1 (Dense)             (None, 64)                8256      
                                                                 
 dense_2 (Dense)             (None, 32)                2080      
                                                                 
 dense_3 (Dense)             (None, 16)                528       
                                                                 
 dense_4 (Dense)             (None, 1)                 17        
                                                                 
=================================================================
Total params: 209,089
Trainable params: 209,089
Non-trainable params: 0
_________________________________________________________________
Epoch 1/256
2024-04-06 17:38:41.358046: I external/local_xla/xla/stream_executor/cuda/cuda_dnn.cc:454] Loaded cuDNN version 8907
…
