…
	model_architecture: simple2
	train_batch_size: 64
	train_epochs: 256
	train_patience: 10
	train_loss: mean_absolute_error
	train_optimizer: adam
	dev_test_ratio: 0.3333333333333333
	train_val_ratio: 0.125
	split_seed: 0
	train_seed: 1
	repetition_iteration: 0
[load] Attempting to load the cached split data
[load] Split hash: 7b378fec
[load] Loaded cached splits in 25.58 s
Model: "sequential"
_________________________________________________________________
 Layer (type)                Output Shape              Param #   
=================================================================
 conv2d (Conv2D)             (None, 149, 348, 32)      288       
                                                                 
 max_pooling2d (MaxPooling2D  (None, 74, 174, 32)      0         
 )                                                               
                                                                 
 conv2d_1 (Conv2D)           (None, 73, 173, 64)       8256      
                                                                 
 max_pooling2d_1 (MaxPooling  (None, 36, 86, 64)       0         
 2D)                                                             
                                                                 
 conv2d_2 (Conv2D)           (None, 35, 85, 128)       32896     
                                                                 
 max_pooling2d_2 (MaxPooling  (None, 17, 42, 128)      0         
 2D)                                                             
                                                                 
 global_average_pooling2d (G  (None, 128)              0         
 lobalAveragePooling2D)                                          
                                                                 
 dense (Dense)               (None, 128)               16512     
                                                                 
 dense_1 (Dense)             (None, 64)                8256      
                                                                 
 dense_2 (Dense)             (None, 32)                2080      
                                                                 
 dense_3 (Dense)             (None, 16)                528       
                                                                 
 dense_4 (Dense)             (None, 1)                 17        
                                                                 
=================================================================
Total params: 68,833
Trainable params: 68,833
Non-trainable params: 0
_________________________________________________________________
Epoch 1/256
2024-04-04 18:40:02.521262: I external/local_xla/xla/stream_executor/cuda/cuda_dnn.cc:454] Loaded cuDNN version 8907
…
