…
[split] [2/3] Splitting development set into training and validation set
[split] [2/3] Done (78.17 s)
[split] [3/3] Normalizing data
[split] [3/3] Done (226.12 s)
[split] x_train shape: (13440, 150, 349, 4), y_train shape (13440,)
[split] x_val shape: (1920, 150, 349, 4), y_val shape (1920,)
[split] x_test shape: (7680, 150, 349, 4), y_test shape (7680,)
[save] Split hash: 45d6eb30
[save] Saved cached splits in 158.48 s
Model: "sequential"
_________________________________________________________________
 Layer (type)                Output Shape              Param #   
=================================================================
 conv2d (Conv2D)             (None, 149, 348, 32)      544       
                                                                 
 max_pooling2d (MaxPooling2D  (None, 74, 174, 32)      0         
 )                                                               
                                                                 
 conv2d_1 (Conv2D)           (None, 73, 173, 64)       8256      
                                                                 
 max_pooling2d_1 (MaxPooling  (None, 36, 86, 64)       0         
 2D)                                                             
                                                                 
 conv2d_2 (Conv2D)           (None, 35, 85, 128)       32896     
                                                                 
 max_pooling2d_2 (MaxPooling  (None, 17, 42, 128)      0         
 2D)                                                             
                                                                 
 global_average_pooling2d (G  (None, 128)              0         
 lobalAveragePooling2D)                                          
                                                                 
 dense (Dense)               (None, 128)               16512     
                                                                 
 dense_1 (Dense)             (None, 64)                8256      
                                                                 
 dense_2 (Dense)             (None, 32)                2080      
                                                                 
 dense_3 (Dense)             (None, 16)                528       
                                                                 
 dense_4 (Dense)             (None, 1)                 17        
                                                                 
=================================================================
Total params: 69,089
Trainable params: 69,089
Non-trainable params: 0
_________________________________________________________________
Epoch 1/256
2024-04-06 08:56:26.196660: I external/local_xla/xla/stream_executor/cuda/cuda_dnn.cc:454] Loaded cuDNN version 8907
…
